mnist_classification/models/mnist_model.pth (torch, 440240 bytes, 6 tensors)

initial_layer.weight f4 [128, 784]
000000 50 5e 7d 3c e0 11 dd 3b e8 48 81 bb ab 88 0b 3d
       0.01546438 0.0067465156 -0.0039454587 0.034065884
000010 90 18 7d bb d2 85 9b 3c d7 ba 06 3d 1c a2 73 bc
       -0.0038619377 0.018984709 0.032893028 -0.014870193
000020 50 7e 51 bb 44 f8 2d 3c d8 94 9b 3c 54 70 12 3c
       -0.0031966157 0.010618273 0.018991873 0.008937914
000030 f2 6f 3c 3d 99 7c 92 3d 45 5f b5 3d 71 2c 3b 3d
       0.046005197 0.07152671 0.08856062 0.04569668
000040 f0 b2 e9 3b ba 82 ce 3c 00 06 e4 3a 4a 7e 05 bc
       0.0071319267 0.02520882 0.0017396808 -0.008147785
000050 53 ed a4 bc 4d ca 0b 3d f8 cb 73 3c d5 b9 0a 3d
       -0.020132696 0.034128476 0.014880173 0.03386863
000060 a0 07 6d 3b a0 c9 e5 3a 28 72 c5 3c 70 6d 3f 3c
       0.0036167875 0.0017531402 0.024102286 0.011683807
000070 a0 f2 a7 3c d2 56 62 bc 55 ed cf bc 6a c6 d8 3c
       0.020501435 -0.013814645 -0.025381723 0.026461799
000080 22 9a 42 bb 6e f2 81 bc f6 7c d9 3d 17 b0 c7 3d
       -0.002969392 -0.01586267 0.106195375 0.09750383
000090 81 87 bc 3d 36 f6 9e 3d c1 3f a5 3d 8c 39 21 3d
       0.09205533 0.07761805 0.08068801 0.03936152
0000a0 f7 06 60 3d 67 64 1a 3d bc d0 dd bd 5d 69 5c 3d
       0.054694142 0.037693407 -0.108308285 0.05381142
0000b0 7d 99 50 3e 33 e2 45 3e 2e 78 13 3e ba 16 17 3e
       0.20371051 0.1932457 0.14401314 0.14754763
0000c0 ee 9c fb 3d e5 48 f2 3d 90 2d a1 3d e9 4e 61 3d
       0.12285791 0.1183031 0.078700185 0.055006895
0000d0 60 a7 b6 bc 28 5c 17 3c fe 4a e8 3c 38 fa 8e 3b
       -0.022296607 0.00923828 0.028356072 0.0043633245
0000e0 10 fa a7 bc 09 5a 0e 3d 3a a8 d3 3c 22 1e b9 3d
       -0.020504981 0.034753833 0.025837053 0.090389505
0000f0 c6 15 c4 3d 5b 76 38 3d 08 5b da 3d 10 7f 1e 3e
       0.095744655 0.045034748 0.10661894 0.15478158
000100 a1 6b 5b 3e de 69 2a 3e 35 06 2d 3e f0 a5 62 3e
       0.21427776 0.16641948 0.16896899 0.22133613
000110 54 4c 09 3e ea 1e ab 3c a9 6a 58 3b 19 0e 9a 3d
       0.13408023 0.020888764 0.0033022559 0.0752222
000120 98 49 ea 3d 6d 9f e8 3d bc dc 42 3d 90 5e b9 3d
       0.11439818 0.11358533 0.04757379 0.090512395
000130 4e ba 10 3e c2 61 e2 3d 36 6e 01 3e d0 02 f9 3d
       0.1413357 0.11053802 0.12639698 0.121587396
000140 9a 22 82 3d d5 2d f9 3c 06 1b c7 3c 18 b2 8e 3c
       0.06354256 0.030417362 0.024304878 0.017418906
000150 32 62 f5 3c fc 90 11 3c 82 35 cd bd 9a 2b a3 3d
       0.02995405 0.008884665 -0.100199714 0.07967301
000160 fd 87 84 3d 7a 33 07 3e 68 08 31 3e 4c 19 20 3e
       0.0647125 0.1320323 0.17288363 0.1563465
000170 55 4d 02 3e 76 5f 4a 3e f6 1e 26 3e d8 85 dc 3d
       0.12724812 0.19762978 0.16222748 0.10767716
000180 71 45 ff 3c 2a 92 81 3d 60 47 32 3d b9 69 15 3d
       0.031161042 0.06326707 0.0435251 0.036477778
000190 a6 02 f6 3c b9 3a 2d 3d 03 42 37 3d 4a 18 26 3e
       0.03003056 0.04229233 0.044740688 0.16220203
0001a0 d5 33 76 3d c9 ab 8e 3d ef db ee 3c ee fa 5f bb
       0.060108025 0.06966359 0.029157607 -0.0034176665
0001b0 b6 50 f0 bc f2 d1 75 bd 7d fe 52 bc 0e dd 0d bd
       -0.029335361 -0.060014673 -0.012878058 -0.034634642
0001c0 8c 7e a5 3c 24 e2 bb bb b4 ab db bd 03 ab 11 be
       0.020201944 -0.005733745 -0.10726109 -0.14225392
0001d0 cf d7 9d 3d 16 6b 0e 3e c4 b9 0f 3e f2 e7 bb 3d
       0.07707178 0.13908038 0.14035708 0.091750994
0001e0 68 e6 04 3e 1a d7 d8 3d d2 21 14 3e 40 9e cf bb
       0.12978518 0.10587902 0.14466026 -0.0063360035
0001f0 01 2b a1 bc d1 1d a1 bd 8d c6 6d bd a3 25 c4 bd
       -0.019673826 -0.07867015 -0.05805068 -0.09577491
000200 4a 35 f1 bd 08 1a a7 bd b0 bf 60 bd 75 12 61 bb
       -0.11777742 -0.08159262 -0.054870307 -0.0034343277
000210 83 36 7b bd 8a c4 28 be a4 c7 59 be 4e d6 38 be
       -0.061331283 -0.16481224 -0.21267563 -0.18050501
000220 2b b5 43 be 8b 9d d8 bd a6 09 03 bd ce fb fb 3c
       -0.19112079 -0.10576924 -0.031991623 0.030759718
000230 1e fe 84 bc c3 c8 dc bc a8 ae 26 3d 97 46 61 bd
       -0.016234454 -0.0269512 0.04069391 -0.05499896
000240 74 f0 05 3e cd fa ce bc ed 3f c9 bc e3 f1 54 bd
       0.13080007 -0.025266076 -0.024566615 -0.051988494
000250 3a b3 50 bd e2 fc 87 bc 1f 26 76 3d 09 3e 68 3b
       -0.050952174 -0.016600076 0.06009495 0.0035437366
000260 df b5 c6 bd c7 67 20 be 84 b5 e3 bd 7a 81 63 3a
       -0.09702658 -0.15664588 -0.11118606 0.00086786563
000270 6f 5b 52 3c bf 9a c1 bd a4 a4 0c be 02 13 39 be
       0.012839182 -0.094533436 -0.1373468 -0.18073657
000280 e9 93 25 be 1e 2b 61 be 3c 54 8d be 73 bf 15 be
       -0.16169704 -0.21989104 -0.27603328 -0.14623813
000290 7b 58 7a be 05 60 2e be 63 9b 78 bd 78 45 bc bc
       -0.24447815 -0.17028816 -0.060695063 -0.022982344
0002a0 aa 91 1e bc 34 9f 67 3b d8 3d f4 3c ba 62 e9 3d
       -0.009678284 0.0035342695 0.029814646 0.11395784
0002b0 d1 0f 12 3e c1 2f 40 bc 68 5c 69 bd ed b3 95 ba
       0.14263846 -0.011730135 -0.05697289 -0.001142142
0002c0 81 5c 9a bd e8 61 06 bd 40 55 62 bd a8 58 1a bd
       -0.07537175 -0.032808214 -0.055257082 -0.037682205
0002d0 6b 14 17 be eb fd b9 bd 62 64 34 bd cb b6 38 3d
       -0.14753883 -0.09081634 -0.044041045 0.0450962
0002e0 03 69 17 3d 36 ac e5 bd 58 7f 32 be 82 71 8c be
       0.03696538 -0.11214487 -0.1743139 -0.2743035
0002f0 1b 6d 83 be 29 03 82 be 76 55 a1 be 4c ef bd be
       -0.25669178 -0.25393036 -0.31510514 -0.37096632
000300 fb e3 1d be 61 5a 8e bd 84 f1 19 be ef b4 ee bd
       -0.15418999 -0.06950832 -0.15033537 -0.11655604
000310 70 c6 73 3b 2d ae a0 3d 7f 68 e5 3c 87 dc 0e 3e
       0.0037197135 0.078457214 0.02800393 0.13951312
000320 8c 57 09 3e c2 55 14 bc d5 b8 28 bd 11 9b 9b bb
       0.13412303 -0.009053649 -0.041191895 -0.00474871
000330 df e3 1d bb b0 2d a4 bb b3 50 8c ba 07 36 ae bd
       -0.002409212 -0.005010329 -0.0010705203 -0.08506399
000340 34 32 98 bd 9d 67 97 bd 83 52 09 bd ea af 1d 3c
       -0.074314505 -0.073928095 -0.033525955 0.009624461
000350 63 b4 52 bd c3 47 c6 bd cf c1 6a be 96 8d c4 be
       -0.05144156 -0.09681656 -0.22925495 -0.38389271
000360 7e e7 9c be 8c c4 a5 be 5e 34 d5 be 16 4a dc be
       -0.30645365 -0.32376516 -0.41641515 -0.43025273
000370 fd 94 d5 bd 16 fd 06 bc ec 06 25 be 57 17 07 be
       -0.10428808 -0.008239051 -0.16115922 -0.13192497
000380 6a a5 e9 3d fb 3d c4 3d 76 f8 eb bd 01 2f b7 bc
       0.11408503 0.09582134 -0.115219995 -0.02236128
000390 65 ee e7 3a ff 64 b3 3d 92 97 93 3b 93 8d 0d 3c
       0.0017694948 0.08759498 0.0045041526 0.008639711
0003a0 4a b3 b2 bc c0 9d 47 bc 60 fd 85 ba 20 33 78 bd
       -0.021814007 -0.012183607 -0.0010222606 -0.06059563
0003b0 4c 95 dd bd 3d 2a 8a bd e9 2d e2 bc e5 f7 0a bc
       -0.10819492 -0.067463376 -0.027609782 -0.008481954
0003c0 e0 57 58 bd bd b5 d8 bd 08 d5 77 be 4f 4c 94 be
       -0.05281818 -0.10581539 -0.24202359 -0.2896447
0003d0 af 25 dc bd 8a e2 08 be 18 ea 08 be d0 91 fb bd
       -0.10749375 -0.13367668 -0.1337055 -0.12283671
0003e0 60 0f 0d be 1d a2 06 be f9 1c 84 be 9a 05 c8 bd
       -0.13775396 -0.13147779 -0.25803354 -0.097666934
0003f0 a8 41 04 bc 10 b1 08 be 4a 09 f2 bd 52 4d 84 bd
       -0.008072294 -0.13348794 -0.11818178 -0.0646006

initial_layer.bias f4 [128]
000000 6a 6e 80 3d 6f d8 c7 bd 4d aa 91 3d 6d 23 1d 3d
       0.0627106 -0.09758078 0.071125604 0.038363863
000010 f1 3b 08 3d 1e 90 dc bc e2 f4 32 3e 4e 5f f3 3c
       0.03326029 -0.02692419 0.17476228 0.02970853
000020 99 57 a7 ba 27 ae ff ba 49 0d c8 3d a3 d2 be 3d
       -0.0012767195 -0.0019506857 0.09768159 0.093175195
000030 cd e3 8c bd d0 13 26 bc ee 13 c1 3d d8 1e 0a bd
       -0.06879387 -0.01013656 0.094276294 -0.03372082
000040 b4 60 d2 bb 57 54 07 3e 3b f5 75 bd e2 74 e0 3d
       -0.0064202193 0.13215767 -0.060048323 0.109597936
000050 46 3b 74 bc c4 12 b5 3c c5 d3 07 bd 1d db c0 bd
       -0.01490671 0.022103675 -0.033160944 -0.094167925
000060 f2 2b e6 3c a7 56 ce 3d da 64 66 bb 26 c9 22 bc
       0.028097127 0.100751214 -0.0035155327 -0.009935653
000070 bc 36 15 3d d9 4c 9f 3d 27 b2 5c 3d 57 95 31 bc
       0.036429152 0.077783294 0.053880837 -0.010838828
000080 1a 7f 31 3c 14 ce 2a 3d ac f4 37 bc 8c dd 1d 3d
       0.010833526 0.041700438 -0.011227768 0.03854136
000090 31 38 01 bd 7b 70 ac bc f3 e1 7e 3c c2 48 8f 3c
       -0.03154773 -0.021049729 0.0155568 0.017490748
0000a0 db 0c 08 3e d4 7a 96 bc 6d 83 7a 3d 94 e9 92 3c
       0.13286154 -0.018369116 0.061160494 0.017933644
0000b0 c4 7c 53 bc cc 73 fa 3c 0a 51 4e 3c d4 e9 df bd
       -0.012908164 0.030572794 0.012592563 -0.10933271
0000c0 ba 33 87 bd 75 22 94 3d 82 fb 8c 3d 4e b8 c7 3b
       -0.06601663 0.07233135 0.06883909 0.006094969
0000d0 77 0e 99 3d 77 ed 01 3d a6 0b 98 3d 4a 84 fa 3d
       0.07473462 0.031720605 0.07424097 0.122322634
0000e0 9a 5d 0c 3e 6a f7 b2 bc 69 f1 9b 3c 8c de 60 3d
       0.13707581 -0.021846492 0.019036012 0.054899737
0000f0 af b4 01 3e 43 f0 4c 3d 85 d1 62 3c 7f 19 82 3d
       0.12666582 0.05003382 0.013843899 0.06352519
000100 a5 43 14 3d 79 85 a6 bc 5d 33 98 3d c8 de 01 bd
       0.036197323 -0.020327317 0.07431672 -0.0317066
000110 38 23 f9 bc f1 78 15 3e e1 09 c8 3d ae 4c 89 3d
       -0.030412301 0.14596917 0.09767509 0.067040786
000120 fd bd ac 3c a4 53 80 bd 84 af 07 3c 69 af 3a 3c
       0.021086687 -0.06265953 0.008281592 0.01139436
000130 f4 bc e4 bc 7d b5 e0 3d cb 91 0b 3d d0 1c 7a bc
       -0.027922131 0.10972116 0.034074586 -0.0152656585
000140 98 4c 92 3d cf 67 45 bd 86 4a b0 3b 05 53 7a bd
       0.07143515 -0.048194703 0.0053799776 -0.06111433
000150 5c 14 2d 3e f6 23 31 bd e8 7a 22 3e bd 8e b3 3c
       0.16902298 -0.043247186 0.15867198 0.021918649
000160 94 72 84 3d fc e6 a1 bc 06 4d 4a 3c 34 56 4f 3d
       0.064671665 -0.019763462 0.012347465 0.05061932
000170 e0 80 9c 3d 46 8f 2f bc 61 c0 22 bc ff 2e 0d 3d
       0.076417685 -0.010715311 -0.009933562 0.034468647
000180 3c 3f 0a 3e a7 fb 2a 3d 94 5e e7 3c f7 dd 20 3e
       0.13500684 0.0417439 0.02824334 0.15709673
000190 2f c0 80 bd 64 7a 97 3d fa 60 25 3e c4 6a 7f 3d
       -0.06286656 0.07396391 0.16150275 0.06235768
0001a0 00 b2 8f bb a4 48 00 3e 81 ab cc 3d 8b 42 9b 3d
       -0.004385233 0.1252771 0.09993649 0.075810514
0001b0 23 b9 9a bc 7f 28 2d 3c 8f 0a af bd 64 1f f8 3d
       -0.018887108 0.010568737 -0.08546936 0.12115362
0001c0 06 2d c1 3d 5c 3d 5c 3d 4b 52 49 bd 1d 31 b2 bc
       0.09432416 0.053769454 -0.049150746 -0.021751935
0001d0 7d f6 26 3d 96 31 fc 3d fd 8a 58 3d 1c e6 c8 bc
       0.040762413 0.12314145 0.052866925 -0.024523787
0001e0 ad 10 8a 3d 5d 20 44 3e 94 55 87 3d 71 5a 1c 3c
       0.06741462 0.1915297 0.066081196 0.009543047
0001f0 dc 48 f3 3d a6 b7 5e bd 97 d3 be 3c 86 13 1c bd
       0.11879131 -0.05437436 0.023294253 -0.038104557

hidden_layer_1.weight f4 [64, 128]
000000 68 f8 c0 bd 55 d9 68 bd c8 34 a4 bd 5b 02 3a bd
       -0.0942238 -0.05684789 -0.0801788 -0.045412403
000010 62 54 11 3c dd ee ce bd 88 34 d3 bd e4 63 47 bd
       0.008870216 -0.10104153 -0.10312754 -0.048679247
000020 54 9a 38 bd e9 89 40 3d 95 4d a7 bc 88 94 6f 3d
       -0.045069054 0.04700652 -0.020422736 0.05849126
000030 b2 d2 e9 3d cd 88 58 bd da 8a 63 be 70 02 8a 3b
       0.1141714 -0.05286484 -0.22220936 0.0042117164
000040 56 53 b8 bc 8a 76 80 bc 6c 7c f0 3d a6 2b f5 bc
       -0.022500675 -0.015681524 0.117424816 -0.02992804
000050 22 61 ea bd b0 9e 64 bd ac 0d 15 3d 36 29 b1 3d
       -0.11444308 -0.0558154 0.03638999 0.086504385
000060 38 2a 51 3c dd eb 82 bd ff 5f 60 bd 76 40 91 bd
       0.012766413 -0.063926436 -0.05477905 -0.07092373
000070 14 54 09 bd 67 a6 b1 bd 72 27 c6 bc a4 9b 8d bc
       -0.03352745 -0.08674317 -0.02418873 -0.01728613
000080 e5 03 67 3d 24 09 b9 bc 1e 9a 36 3d e7 f0 30 3d
       0.0564002 -0.022587366 0.04458057 0.043198492
000090 22 26 ee 3c 37 5b 88 bc 66 59 6e 3d 13 08 b1 3d
       0.029070918 -0.016645057 0.058190726 0.08644118
0000a0 2f 40 75 bd 0d b8 ad 3d 00 b6 d3 3d 57 5e 89 3d
       -0.059875663 0.084823705 0.10337448 0.06707447
0000b0 19 b0 41 bd 1f dc 2b 3d b5 38 88 3d 53 e7 97 bd
       -0.04728708 0.04195797 0.06651441 -0.074171685
0000c0 9e 98 2c 3c 58 fd f9 bd 69 28 02 3d ae 0a 36 bd
       0.010534434 -0.122065246 0.03177682 -0.04444378
0000d0 56 b0 15 bd d7 2c dd 3c ce 15 b9 bc e0 ac 9f bd
       -0.03654512 0.02699892 -0.022593405 -0.07796645
0000e0 16 d8 e7 bd 05 78 0c 3d eb d8 a8 bc 0c 98 ea 3d
       -0.11320512 0.034294147 -0.020611247 0.11454782
0000f0 32 24 0f 3d 5f e6 9f bc f2 79 fb bd d3 53 14 be
       0.034946628 -0.01951903 -0.122791186 -0.14485101
000100 d7 e4 16 be d5 3d c7 3d fe 90 66 bd 49 8f 8c 3a
       -0.14735733 0.097285904 -0.05629062 0.0010723855
000110 86 c6 05 3d d5 81 62 bd fd ab 17 bd 87 4c be bd
       0.03266003 -0.0552996 -0.037029255 -0.0929194
000120 b8 41 b4 bc 6b 78 e0 3d 55 19 d8 bb 5c aa 88 3d
       -0.022003993 0.10960468 -0.0065948167 0.066731185
000130 6b 33 ac bd b7 06 88 bd ac 1c ec 3d 8b ae a5 bd
       -0.08408245 -0.06641906 0.11528906 -0.08089932
000140 3e 24 04 3d 65 81 8d bd bf 9e 9c 3d 7c 11 8f bd
       0.032261126 -0.06909446 0.07647466 -0.06985757
000150 2f 39 2c be 7d 34 b5 bd 27 7e 1a 3d 15 45 3e 3e
       -0.16818689 -0.08847902 0.037717965 0.1858104
000160 77 d8 e0 bc d0 ac 9e bd b5 fa cf bd 69 3a 5c 3c
       -0.027446968 -0.07747805 -0.101552404 0.01344166
000170 26 55 e0 3c 77 01 10 be 72 6a ba bc 7f 6f 34 3d
       0.027384352 -0.14063059 -0.022755835 0.044051643
000180 c4 bd ba 3c 46 8d fa bd b6 e3 2e 3b 01 a3 36 bd
       0.022795565 -0.12233977 0.002668602 -0.044589046
000190 6f 02 3b 3d f7 25 65 bc d2 21 64 bd 1b 2b 2a 3d
       0.045656618 -0.013986102 -0.055696316 0.041545015
0001a0 b0 50 ef bb b6 da 98 3d 0b 2e da bd 2e 26 46 bd
       -0.00730332 0.07463591 -0.10653313 -0.048376255
0001b0 d6 7e 5f bd e7 f4 a8 bd 1a 12 bc bc f1 2b 8e bc
       -0.05456432 -0.082498364 -0.02295785 -0.017354937
0001c0 53 db 25 be bc 51 9f bc a6 e4 b1 bc c2 62 87 bd
       -0.16196947 -0.019448154 -0.021715473 -0.066106334
0001d0 e3 5a 0d bd 13 82 d7 3c f4 11 5c be 2d 26 1f be
       -0.034510504 0.026307141 -0.21491224 -0.15541907
0001e0 c5 0b 2f bb e9 33 f2 bd 60 97 b2 bd 0a 8d e3 bd
       -0.0026709896 -0.11826307 -0.08720279 -0.111108854
0001f0 c5 3b 16 3e 6e b3 3b bd 72 af 64 bd fe 33 bb 3c
       0.14671238 -0.045825414 -0.05583138 0.02285194
000200 b8 83 85 be 99 9b d5 bd 74 30 76 3e b9 50 b7 3c
       -0.26077056 -0.104300685 0.24041921 0.022377359
000210 b5 0e 90 3e 84 66 b9 be ec 08 07 bc 0b 5e 03 3e
       0.2813622 -0.36211026 -0.008241873 0.12828843
000220 84 07 f9 bc 3a df 59 bc a8 fd bd bd 80 39 bb 3d
       -0.030399092 -0.01329785 -0.09276897 0.09141827
000230 ce 63 89 be 72 c9 74 bd 33 68 8a 3d 72 0a 9e 3b
       -0.26833957 -0.059762426 0.06758156 0.0048230225
000240 3f 2b 95 be 9c 24 1d 3e ee 21 b4 bc d6 01 b5 3d
       -0.29134557 0.15345997 -0.021988835 0.08838241
000250 8f d2 7c bd ff 49 b9 3d ca b8 8a 3d 19 58 c6 3c
       -0.06172424 0.09047317 0.06773527 0.02421193
000260 a1 37 27 3d c0 c2 bc bd 85 c6 9d 3c 98 0a 9a 3d
       0.040824536 -0.09216833 0.0192597 0.07521552
000270 63 ae c8 3d a1 25 1f 3e fa 32 12 bd e9 0f 7c bd
       0.097988866 0.15541698 -0.035693146 -0.06153861
000280 91 ae 77 3d 5f 37 43 3d 2b 16 90 bb 6a 07 67 be
       0.060469214 0.047660228 -0.004397174 -0.22561422
000290 26 23 60 bd 3e cc db bd 24 37 1f 3e f7 f1 84 bd
       -0.05472102 -0.107323155 0.15548378 -0.06491464
0002a0 81 7f 0f 3d 0c ff 38 be c2 24 1c 3e c5 bb 80 3e
       0.035033707 -0.18066043 0.15248397 0.25143257
0002b0 dc 00 89 3c 21 64 04 3e 4d 36 87 bc 93 8f aa b9
       0.016724043 0.12928821 -0.016505385 -0.00032531898
0002c0 d1 12 82 be 13 78 6d be 10 16 12 3e 2f d5 18 bc
       -0.2540498 -0.23190336 0.14266229 -0.009328171
0002d0 0b 36 14 3d ca 3e 17 3e 4e 89 6f 3d 79 e7 81 3d
       0.036184352 0.14770046 0.058480553 0.06342978
0002e0 3e 32 45 bd ad af 7d 3d 57 e2 af bd ee 0b a8 be
       -0.048143618 0.061935116 -0.08588093 -0.32821602
0002f0 96 19 9c 3d 03 b5 64 bd bc ee 07 bc c5 dc a6 bc
       0.07622068 -0.05583669 -0.008296665 -0.020368943
000300 bb 8e 02 be 60 73 28 bd 0e 83 36 3e 03 1d fa bd
       -0.1274976 -0.041125655 0.17823431 -0.12212565
000310 83 99 84 be ea 13 6c 3e 2d db 04 3e de e9 99 3c
       -0.2589837 0.23054472 0.12974234 0.018788274
000320 09 79 1a 3d f6 27 e6 3c 7e da d1 bc 97 d8 7e 3e
       0.037713084 0.028095227 -0.02561688 0.2488731
000330 51 85 4b 3e c0 c6 59 3d 81 f1 bf bc 6f 3c cf 3c
       0.19875075 0.05316806 -0.023430588 0.025297372
000340 41 00 df 3d f9 49 58 3d c0 47 90 bd c4 63 bb bc
       0.1088872 0.05280492 -0.07044935 -0.02287472
000350 77 f3 e2 3d c1 3b 73 3c 11 26 ed bd ac c0 22 3e
       0.110815935 0.014845789 -0.11579526 0.15893811
000360 49 39 2e 3c cf 3c 36 be 9c eb ad bd 0d 7f a6 3d
       0.010633775 -0.17796634 -0.084922045 0.08129702
000370 4b 67 81 3d df bc e7 3d 26 eb a7 bd b1 93 9b 3c
       0.0631853 0.11315321 -0.08199148 0.018991323
000380 7f d5 02 be 7a 08 67 bc f5 85 d6 3c 60 90 21 be
       -0.12776755 -0.014101142 0.026186923 -0.15777731
000390 c8 6c 90 be 25 01 cd 3d 22 a9 26 3e a5 cb 69 be
       -0.28207994 0.10009984 0.16275457 -0.2283159
0003a0 5f be cd bc e1 64 75 3d d6 e8 91 3d a4 ca 0c 3e
       -0.02511519 0.05991066 0.07124488 0.13749176
0003b0 d5 60 6e bc a7 d3 df 3c b5 1f 86 bd e6 81 34 3d
       -0.014549454 0.027322603 -0.065490164 0.044069193
0003c0 aa bf b4 3e 51 68 c7 39 6d 61 e2 bd 2b c6 cf bc
       0.35302478 0.0003803396 -0.11053739 -0.025363049
0003d0 2d 1c 9d 3d f2 f8 3a 3e 71 57 3f be c6 d7 cf 3d
       0.0767139 0.18259028 -0.186857 0.101485774
0003e0 be 1b 40 be 6e 8d 03 3e fc 16 b1 3d 16 84 c6 bd
       -0.18760583 0.1284692 0.08646962 -0.09693162
0003f0 ce b3 14 3e bc ce 1d bd 16 b8 50 3c b3 2c 9d bd
       0.14521715 -0.038527235 0.012739202 -0.07674541

hidden_layer_1.bias f4 [64]
000000 63 e4 73 bc 68 09 05 3e ce dd 93 bd 2c 98 97 3d
       -0.014885995 0.1299187 -0.0722004 0.07402071
000010 ab 62 7c bd 78 77 83 3d 99 5e 3c 3d a2 dc 8f bd
       -0.061617535 0.06419271 0.045988653 -0.07024504
000020 ea d6 2d bb 8a 28 2f bd 4e 24 1c 3e 14 84 4b 3d
       -0.0026525804 -0.04276327 0.15248224 0.049686506
000030 8e 7b da 3d 84 6d 4c 3d 54 df 2e 3e 2e 0e 57 3b
       0.106680974 0.04990913 0.1707738 0.0032814848
000040 dd 07 b0 3d f5 6d c4 3d dd 16 13 3d bb 69 f5 3b
       0.0859525 0.09591285 0.035910476 0.0074894107
000050 11 65 14 3d 7f 2a 81 3d 5b 52 1b 3d dc 76 88 bc
       0.036229197 0.063069336 0.037920337 -0.016658239
000060 25 0a f3 3d 23 36 f8 3d 3d b7 de 3c f4 f4 c9 bd
       0.11867169 0.12119701 0.027186984 -0.09861174
000070 2f 95 c2 bc 76 fd 43 3e 8f a2 9a bd c4 ee 08 3e
       -0.023752777 0.19139656 -0.07550537 0.13372332
000080 48 7d 45 3e 02 dc ce bd fb a1 7a bc f1 72 6e 3d
       0.19286072 -0.10100557 -0.015297408 0.058215085
000090 64 5b 02 3e 05 65 14 bd 01 e8 0e 3d 78 4e a3 bb
       0.12730175 -0.036229152 0.034889225 -0.0049837194
0000a0 6c 41 77 bd 7c 8e d4 3b ee 67 f3 3c d8 d7 9f bc
       -0.060365126 0.006486712 0.029712643 -0.019512102
0000b0 9d 48 a0 bd 20 01 17 bd 88 c7 cd 3d 31 96 df bd
       -0.0782635 -0.036866307 0.10047823 -0.109173186
0000c0 c1 ac 39 3e 32 81 7b 3d 96 0f d3 3d 45 93 a4 bc
       0.18132307 0.061402507 0.10305707 -0.020089755
0000d0 d0 e6 6d 3d 12 e5 27 3e 90 13 af bc 82 d5 49 3e
       0.058081448 0.16395977 -0.021371633 0.19710353
0000e0 24 a9 ea 3d 8f 44 64 bd 5d 51 f3 3d 35 16 43 3c
       0.11458042 -0.055729445 0.11880753 0.01190715
0000f0 2d 9c 3e 3c 2f e1 b6 3b ff 5c 9e 3d 06 87 c7 3d
       0.011633915 0.005581043 0.07732581 0.097425506

hidden_layer_2.weight f4 [10, 64]
000000 fa 3c a8 bd 23 ff b0 bd 67 98 2a be 92 94 a4 3d
       -0.08214755 -0.086424135 -0.166597 0.0803615
000010 03 86 1b 3e 20 14 5f bd a7 91 52 3e a8 1c 37 be
       0.1518784 -0.054462552 0.20563374 -0.17882025
000020 ef d0 d4 3d 21 5b d4 3d 72 54 7c be 04 4d 91 be
       0.103914134 0.10368944 -0.24641588 -0.2837907
000030 e2 7a 92 be 67 22 75 be 89 61 e1 bd 31 f2 30 be
       -0.28609377 -0.23938905 -0.110049315 -0.17279889
000040 b3 dd 23 3e bd 7c 80 3d 8a ed 17 bc 55 67 41 3e
       0.1600254 0.06273792 -0.009272942 0.18887074
000050 ae f9 19 3b 04 8f 02 be b5 8e 04 bd 8d b7 b3 3d
       0.0023494768 -0.12749869 -0.03236266 0.08775244
000060 bd ab 51 be 22 dd 94 3d e4 79 04 3e 5e 0b 72 3d
       -0.20475669 0.0726874 0.12937123 0.05909287
000070 fa 28 0a bd 4a 61 c1 be 35 9a 6f bd 60 be 9c be
       -0.033730485 -0.37769538 -0.058496673 -0.30613995
000080 bc 1c d1 3d 13 b7 28 bd 2b b4 10 be 82 9e 44 bd
       0.10210559 -0.04119022 -0.14131229 -0.048002727
000090 34 f0 5d be d2 ec 21 3e e9 42 34 3e cc d3 19 3e
       -0.21673661 0.15812996 0.17603649 0.150222
0000a0 c8 3e 6f bd 73 2f 99 be 62 37 db 3d a9 13 ba 3c
       -0.058409482 -0.29919013 0.10703923 0.022714453
0000b0 22 28 b8 b9 15 4f 8d be 34 1c 52 3d 14 9d 13 3e
       -0.00035125116 -0.27599397 0.051296428 0.1441539
0000c0 8c ee 1b be 28 eb a4 be 4c 8e 21 3e ec d7 93 be
       -0.15227717 -0.3221066 0.15776938 -0.28875673
0000d0 1b 0f 58 3e 2a 63 83 3e 32 f8 f2 3d 58 1e a6 be
       0.21099512 0.25661594 0.11863746 -0.32445025
0000e0 38 e9 32 3e 0b 99 22 bc 95 9d 8f be f8 b3 a1 3d
       0.17471778 -0.009924184 -0.28049913 0.078956544
0000f0 a4 4a 12 bd cf 4d 32 3d ee 91 17 3e 32 44 f8 3d
       -0.035715714 0.043531235 0.14801762 0.12122382
000100 8b 15 64 be e6 b4 20 be 43 c4 83 3d 6f df 91 be
       -0.22273843 -0.15694007 0.06433918 -0.2849078
000110 46 4a fc bd 0c 37 7b 3e 55 79 7f 3e d5 d7 48 3e
       -0.12318854 0.24532717 0.24948628 0.19613583
000120 e7 bf 34 3e 02 22 a1 3c 9f 9f 5c bd af a8 bf 3d
       0.1765133 0.019669537 -0.053863164 0.09358346
000130 2c e8 80 3e f6 02 4d bc 1b 54 eb 3d aa e1 9f be
       0.25177133 -0.012512913 0.11490651 -0.31226856
000140 5d 08 7d be c5 2d 94 be 25 d9 9a bd a8 a1 bb bd
       -0.24710222 -0.2894117 -0.07560948 -0.09161693
000150 85 e5 96 3d c1 ce dd bd 6e 62 82 3d 97 95 5d be
       0.07367996 -0.10830451 0.0636643 -0.21639095
000160 98 b0 3e 3e c2 29 50 3e 2b 0f 75 be 02 56 02 be
       0.18622053 0.2032843 -0.23931567 -0.12728122
000170 11 35 68 be a0 87 cd 3d 79 9b 5e 3e e3 3e bd be
       -0.22676493 0.10035634 0.21738996 -0.3696204
000180 b6 72 3d be 14 d5 9b 3d 6e 4e be bd 2d 2c 8f 3e
       -0.1850079 0.07609001 -0.09292303 0.2796339
000190 2d 61 1c 3e 71 fc 46 3e 8f a2 63 3d 3c f2 9b bc
       0.15271445 0.19432236 0.05557495 -0.019036405
0001a0 03 f6 30 3e 12 93 57 be 2c c3 62 3c 89 3e 76 be
       0.17281346 -0.21052197 0.013840478 -0.24047293
0001b0 fc ef d0 bd c1 e2 38 3e 56 4b 63 be d4 55 91 be
       -0.102020234 0.1805525 -0.22196707 -0.28385794
0001c0 ee 3b a0 bc 44 b2 28 3e b1 67 3e be b4 cf 94 bb
       -0.019559827 0.16474253 -0.18594243 -0.0045413617
0001d0 eb cd 83 3d 92 07 f2 3b 33 c6 4d be 25 68 3d bd
       0.0643576 0.0073861564 -0.20095138 -0.046241898
0001e0 cb 75 22 be 01 90 fb bc 6e fc 19 be d9 78 84 bd
       -0.15865247 -0.030708315 -0.150377 -0.06468362
0001f0 5a 1c 29 3e 3c fe b7 bd dc 67 5a 3d 23 5b 44 be
       0.16514722 -0.08984038 0.053321704 -0.19175391
000200 73 32 18 bb db 83 77 be 90 62 58 3b 03 01 17 bd
       -0.002322343 -0.24171393 0.0033017732 -0.0368662
000210 73 43 44 bd d0 56 8b 3d 57 de 61 3e b0 61 0b 3e
       -0.047915887 0.068036675 0.22057472 0.13611484
000220 cb 85 a4 3d f1 b4 bb 3b 26 4b 68 3e 07 4a 08 bd
       0.080333315 0.005728357 0.22684917 -0.033273723
000230 03 67 40 3e c1 f8 4b 3e ee 33 3e be 01 52 31 3e
       0.18789296 0.19919111 -0.18574497 0.17316438
000240 65 73 41 3e 01 0f 9b be 9e d4 37 3e 7f 2c 01 3e
       0.18891676 -0.30284885 0.17952201 0.1261463
000250 1a 25 74 3d 39 46 08 3e bf 75 62 be 52 28 a4 3d
       0.059605695 0.13308038 -0.22115229 0.08015503
000260 1f f3 26 be cd ce 13 3e 3f e6 5d 3c 69 89 03 3e
       -0.16303681 0.14434357 0.0135436645 0.12845387
000270 e1 e9 cf 3c e6 ca 29 bc 85 82 fb 3d 53 1e bb bd
       0.025380077 -0.010363316 0.12280754 -0.09136643
000280 9d ef 68 be c0 0b 37 38 73 ca 52 bd bc 29 81 be
       -0.22747655 4.3641543e-05 -0.051462602 -0.25227153
000290 56 0b 94 be 3a 60 34 3e 8b 62 b9 bd 6e 83 37 bb
       -0.289149 0.17614833 -0.09051999 -0.0028001922
0002a0 f8 c8 b8 be fe ff 97 bb ee 27 33 3e e8 36 a1 bd
       -0.36090827 -0.004638671 0.174957 -0.07871801
0002b0 6f 5f 1d bd 18 84 05 bd 29 96 33 3d b9 ec 83 3d
       -0.03842109 -0.032596678 0.043844376 0.06441636
0002c0 44 8a 99 be 0f aa 03 3e 06 bf 2b 3b bc 61 3f 3e
       -0.299883 0.12857841 0.0026206388 0.18689626
0002d0 da 0f f4 bd 57 ab de bd 57 65 26 be ae 6f 3c be
       -0.11917086 -0.10872524 -0.16249596 -0.18401977
0002e0 89 e7 b0 bd af d4 78 ba 89 bb 6c be c7 e4 93 bd
       -0.08637912 -0.00094921415 -0.23118414 -0.0722137
0002f0 b3 98 ad be 26 43 fd 3d 68 db 0f 3e 2a 82 8b 3d
       -0.33905563 0.12366323 0.1404854 0.06811936
000300 27 20 0d bd 25 8c 34 be 83 bc 3d 3e 7a f9 05 3e
       -0.03445449 -0.17631586 0.18528943 0.13083449
000310 f5 5c 2e bc 64 0f df be 2f af 30 be 8f 41 1b 3e
       -0.01064228 -0.4356643 -0.17254327 0.15161727
000320 9c db 72 3d 86 8f 9c bc 6d f7 14 bd b0 98 ab 3c
       0.059291467 -0.019111406 -0.036368776 0.02094683
000330 f8 e4 9f be d5 90 3d be 63 4d d9 be 3f 9d 58 3d
       -0.31229377 -0.1851228 -0.42441854 0.052884337
000340 37 3b e4 bd 82 d9 3a 3d 7c e3 94 3d f6 ac 94 3d
       -0.11144107 0.045617588 0.07269952 0.07259552
000350 24 ca 6d be bc 5b a1 be a8 d3 aa bd aa 6f 08 3e
       -0.23221642 -0.315153 -0.083411515 0.13323846
000360 71 3e c9 be 72 ed 4b be 33 ae 9e 3d 5a 7d 09 3e
       -0.39305452 -0.19914797 0.077480696 0.13426724
000370 8e 13 27 be 62 31 39 b9 6a a0 ce 3d 10 44 26 bd
       -0.16316053 -0.00017661371 0.1008919 -0.040592253
000380 20 c3 86 be 3c 54 7e 3d 80 5f bb bd f6 00 38 3e
       -0.26320744 0.06209205 -0.091490746 0.17969117
000390 81 10 be bd e8 21 67 bb 25 80 98 3d d9 a0 af be
       -0.092804916 -0.0035268012 0.07446317 -0.34302405
0003a0 3b 3a 10 3e 8f dd 27 3e 2d 82 2f be 98 26 40 3e
       0.14084713 0.16393112 -0.17139502 0.18764722
0003b0 0f fe a1 3d 45 ba 06 be 0c 69 d5 bd b3 55 51 3d
       0.07909786 -0.13156994 -0.10420427 0.05110712
0003c0 60 26 75 be ba 03 f7 3d 6b 7d 95 be b0 84 35 3d
       -0.2394042 0.12061258 -0.2919725 0.044315994
0003d0 40 c1 30 be c3 9d ad be 8f 21 ef bd b7 14 11 3d
       -0.17261219 -0.33909425 -0.11676323 0.035420146
0003e0 9f e7 30 be 01 ad ad bd 11 ee 4a 3e e2 a5 2f bd
       -0.17275856 -0.084802635 0.19817378 -0.042882808
0003f0 ba 10 1d 3e c5 a8 87 3e 70 f9 26 3e 81 d5 24 3e
       0.15338412 0.26495948 0.1630609 0.1609707

hidden_layer_2.bias f4 [10]
000000 42 56 ea bd f7 a7 69 bd 86 5d 1d bc 6a 0b 0e 3d
       -0.114422336 -0.05704495 -0.009604817 0.034678854
000010 9d e2 34 3e cc f8 07 3e cf 75 ac 3d 8a 8c fe 3c
       0.17664571 0.13278502 0.08420908 0.031072874
000020 61 c3 a5 bd 91 39 58 bd
       -0.08093906 -0.052789275
