mnist_classification_embedded/models/mnist_model.pth (torch, 129328 bytes, 4 tensors)

initial_layer.weight f4 [40, 784]
0	0xbd0d3cb2	-0.03448171
1	0x3cdf988e	0.027294423
2	0xbc8e9e7e	-0.01740956
3	0x3cb3f0ac	0.021965347
4	0xbc971030	-0.018440336
5	0x3cadc0ae	0.02121004
6	0xbc78fddc	-0.015197244
7	0xbcec0fe3	-0.02881617
8	0x3cf4aeb2	0.029868457
9	0x3c286fe4	0.010280583
10	0x3ca2057e	0.01977801
11	0x3c94afb6	0.018150192
12	0xbcfee05a	-0.031112839
13	0x3c801e8b	0.015639564
14	0x3d8a8328	0.06763297
15	0x3da8cc46	0.08242087
16	0x3d10c987	0.03534844
17	0xbc8e0cce	-0.01734009
18	0x3c99a77e	0.018756624
19	0x3c3357a4	0.010946188
20	0x3cd86cd8	0.026419088
21	0x3c14dda8	0.00908605
22	0x3d0f94cd	0.035054017
23	0xbc88f005	-0.016716013
24	0x3cfa3732	0.030543897
25	0x3d0412f9	0.032244656
26	0xbc3a5a8e	-0.011374129
27	0xbb42a030	-0.002969753
28	0xbc823e30	-0.015898794
29	0x3cfcdbae	0.03086647
30	0x3ca1221a	0.019669581
31	0x3cb649ea	0.022252042
32	0xbd5e38bd	-0.05425333
33	0x3d92a93e	0.07161187
34	0x3e3c16ed	0.1836812
35	0x3e2f90c9	0.17145075
36	0x3e14f073	0.14544849
37	0x3e01d8b7	0.12680326
38	0x3d4a7b5e	0.04943406
39	0xbce2d490	-0.027689248
40	0x3b40a4b8	0.0029395055
41	0x3d39518d	0.04524379
42	0x3cd505fa	0.026003826
43	0x3af3e425	0.0018607421
44	0xbccdcf60	-0.025123298
45	0xbd3e7e1f	-0.046506997
46	0x3b72a5f6	0.003702519
47	0x3d48e458	0.04904589
48	0x3d8dce52	0.06924118
49	0x3d4625e5	0.048375983
50	0x3dc52606	0.09626393
51	0x3e24f7fc	0.16110224
52	0x3c51e83c	0.012811717
53	0xbcd94753	-0.026523268
54	0x3c328e84	0.010898236
55	0x3ca67260	0.02031821
56	0x3b5ce1a0	0.003370382
57	0xbc037e04	-0.00802565
58	0xbcdf8f50	-0.027290016
59	0x3d819384	0.063269645
60	0x3c059ca4	0.008155022
61	0x3d1a6e22	0.037702687
62	0x3e0e892f	0.13919519
63	0x3e37314f	0.17889903
64	0x3e913ddd	0.2836751
65	0x3e8a7e73	0.27049598
66	0x3e6dde2a	0.2322928
67	0x3e972806	0.29522723
68	0x3e87ae67	0.26500246
69	0x3e53f350	0.20698285
70	0x3e98f4d2	0.29874283
71	0x3ebcd55b	0.36881527
72	0x3e74f003	0.23919682
73	0x3db09320	0.08621812
74	0x3d15c671	0.0365662
75	0xbc1c9c76	-0.009558788
76	0x3de4c2c8	0.11169964
77	0x3dd81676	0.10551159
78	0xbbbb9ff5	-0.0057258555
79	0x3da9c1e4	0.08288935
80	0x3e2e8bbb	0.1704549
81	0x3df6d61b	0.12052556
82	0x3c98f516	0.018671554
83	0xbd0bb098	-0.03410396
84	0xbd0d1a90	-0.03444916
85	0x3cafd1c6	0.021462332
86	0x3dafa912	0.085771695
87	0x3dc775ac	0.09739241
88	0xbd44fb8e	-0.048091464
89	0x3e0ac5c3	0.13552003
90	0x3e5511f1	0.20807625
91	0x3e920b2d	0.2852415
92	0x3e666e4d	0.22503014
93	0x3e673efc	0.2258262
94	0x3e402a2c	0.18766087
95	0x3e799b0e	0.24375555
96	0x3e81b19b	0.25330815
97	0x3e0c91aa	0.13727441
98	0x3e04165e	0.12899157
99	0x3e37ed51	0.17961623
100	0x3e2a5254	0.16632968
101	0x3cedcbdf	0.029027877
102	0xb9bcce7c	-0.00036011997
103	0x3d7f0a5f	0.06226575
104	0xbc9da867	-0.01924534
105	0x3a0668ea	0.0005127328
106	0xbd3c8055	-0.046020824
107	0xbd93420a	-0.0719033
108	0x3dd37d6a	0.10326655
109	0x3d966cb1	0.0734495
110	0xbb68513d	-0.0035448812
111	0x3c99ccc0	0.01877439
112	0xbcd2fdc8	-0.025755778
113	0x3d22e8b9	0.039772723
114	0x3e14acd9	0.14519061
115	0x3d3007aa	0.04297606
116	0x3d686e36	0.05674573
117	0x3ebfd56b	0.37467512
118	0x3ea54183	0.32276544
119	0x3e03e62e	0.12880775
120	0x3e3d7e6b	0.18505256
121	0x3da215d0	0.07914317
122	0x3dade4da	0.084909156
123	0x3dd9d087	0.106354766
124	0x3e095f34	0.13415223
125	0x3d94fe90	0.072751164
126	0x3db4f7f8	0.08836359
127	0x3d8eb45e	0.06967996
128	0x3d98dd7e	0.07464121
129	0xbd1851af	-0.037187275
130	0x3ce67179	0.02813028
131	0x3d4af9fb	0.049554806
132	0x3c2ff3f8	0.010739319
133	0xbdb0aead	-0.08627067
134	0xbd011407	-0.03151324
135	0xbddfee98	-0.1093418
136	0xbe122b75	-0.1427439
137	0xbd4f4cc5	-0.050610323
138	0x3ce908ac	0.028446518
139	0x3d6fa1f1	0.05850405
140	0xbcc4913e	-0.023995038
141	0xbcdd7ae8	-0.027036145
142	0x3e3afa14	0.1825946
143	0x3e0e54e3	0.13899569
144	0x3e4fbb18	0.20286214
145	0x3e5aa84f	0.21353267
146	0x3e0bcff2	0.13653544
147	0x3de5202d	0.11187778
148	0xbc2873c0	-0.010281503
149	0xbd16965b	-0.036764484
150	0xbd7f0a7f	-0.06226587
151	0xbdbdd81e	-0.09269737
152	0xbda057b0	-0.07829225
153	0xbdf7ab75	-0.1209325
154	0xbd68cff8	-0.05683896
155	0x3c2a0bbe	0.010378776
156	0x3d85000f	0.06494152
157	0x3b1c079c	0.0023808246
158	0x3d68ae1c	0.05680667
159	0x3b300b86	0.0026862337
160	0x3cb3dbdb	0.021955421
161	0x3d97ec65	0.074181356
162	0x3dabe6c1	0.08393622
163	0x3dcecd78	0.10097784
164	0x3cf504ab	0.029909452
165	0xbd1161f1	-0.035493795
166	0xbd0d4e15	-0.034498293
167	0x3d30db53	0.043177914
168	0xbaa41460	-0.0012518279
169	0x3db0ff6d	0.086424686
170	0xbca1558a	-0.019694109
171	0x3e47ee47	0.1952449
172	0x3e7a0ca6	0.24418887
173	0x3df4875a	0.11939879
174	0x3e0442f6	0.12916169
175	0xbbce29da	-0.00629161
176	0xbdfa424b	-0.12219676
177	0xbd25a227	-0.040437844
178	0xbdab48cc	-0.08363494
179	0xbdee83c9	-0.1164623
180	0xbe11754a	-0.14204898
181	0xbdf7282f	-0.12068211
182	0xbe022079	-0.127077
183	0x3abe0b4e	0.0014499219
184	0xbd0ff355	-0.03514417
185	0xbdd0abb6	-0.10189001
186	0xbd79bc7d	-0.060970772
187	0xbd1c3aff	-0.0381422
188	0xbb94c042	-0.0045395205
189	0x3d38cdf9	0.045118306
190	0x3d3b5f15	0.045744974
191	0xbd6539c4	-0.055963293
192	0xbd83e63b	-0.06440397
193	0xbd24e756	-0.04025968
194	0xbd9693db	-0.0735242
195	0x3d93361b	0.07188054
196	0xbc0c14de	-0.008549897
197	0x3e60c87f	0.21951483
198	0xbcba66fa	-0.022754181
199	0x3e1f7bb5	0.15574534
200	0x3eb10215	0.345719
201	0x3e0c42c7	0.13697349
202	0x3d438ae7	0.04773989
203	0x3ccbc6a7	0.024874998
204	0xbd909a4d	-0.070606805
205	0xbd0a4a74	-0.03376241
206	0xbd724d5b	-0.059155803
207	0xbcf0b807	-0.029384626
208	0xbd6c4c88	-0.057690173
209	0xbd8a9b4d	-0.067679025
210	0xbd910381	-0.070807464
211	0xbdd23246	-0.10263495
212	0xbdc5ceb4	-0.09658566
213	0x3b0a3647	0.002108948
214	0x3c866c92	0.016409192
215	0x3d98f881	0.07469273
216	0x3d6db2ba	0.058031775
217	0xbc3e303a	-0.011608178
218	0x3bf086bb	0.00734028
219	0xbe4c0363	-0.19923167
220	0xbe8de38b	-0.27712664
221	0xbe652222	-0.22376302
222	0x3c7ffe68	0.01562462
223	0x3cbd6cfe	0.02312326
224	0x3b5eb8cc	0.003398466
225	0x3cdb1079	0.026741253
226	0xbcf7942a	-0.030222017
227	0x3c99b4ed	0.01876303
228	0x3e914519	0.2837303
229	0x3daa20fc	0.083070725
230	0x3c5c24a7	0.013436473
231	0xb9c9d396	-0.0003849535
232	0xbdb62dc3	-0.08895447
233	0xbc1ecc5a	-0.009692276
234	0x3d54f10b	0.05198769
235	0x3d53caf3	0.05170722
236	0xbd2a03c9	-0.041507516
237	0xbd732466	-0.059360884
238	0xbe16692e	-0.1468856
239	0xbd833abc	-0.06407687
240	0xbdc145f7	-0.09437173
241	0x3d207385	0.039172668
242	0xbc428c0a	-0.011874208
243	0x3dbc94a8	0.092080414
244	0x3d0c8bf7	0.03431317
245	0xbdcc13b1	-0.09964693
246	0xbd2503a7	-0.040286686
247	0xbe880b30	-0.26571035
248	0xbf0442ad	-0.5166424
249	0xbe9ebbb3	-0.31002578
250	0xbd630f53	-0.055434536
251	0xbbe63b53	-0.007026115
252	0xbcfb8445	-0.03070272
253	0xbc44975d	-0.011998978
254	0x3c9c2893	0.019062316
255	0x3d4dbf4b	0.05023126

initial_layer.bias f4 [40]
0	0x3d0dcce5	0.03461923
1	0xbdcbf176	-0.099581644
2	0x3d0b2a55	0.033975918
3	0x3e520a02	0.2051163
4	0x3e3daa2f	0.18521951
5	0x3e4eec44	0.20207316
6	0x3c947c8e	0.018125799
7	0xbb894be3	-0.0041899546
8	0xbd640e71	-0.055677835
9	0x3cd568cd	0.02605095
10	0x3e30c5bd	0.17262931
11	0x3e211d35	0.15733798
12	0x3d2a13e0	0.04152286
13	0x3e9a4ade	0.30135244
14	0x3e8247b4	0.2544533
15	0x3c822bb4	0.01588998
16	0x3e0673b5	0.13130076
17	0x3b8666d3	0.004101613
18	0xbe1d6616	-0.15370974
19	0x3e323a7b	0.17405121
20	0x3dbc83e2	0.09204842
21	0x3e0d82b5	0.13819392
22	0x3d9d1ec7	0.07671886
23	0x3da060bb	0.0783095
24	0x3d6f58fc	0.05843447
25	0xbe56e237	-0.20984732
26	0x3e514673	0.2043703
27	0x3e25b856	0.161836
28	0xbcc02e2a	-0.023459513
29	0x3e260472	0.16212633
30	0xbd8d9d1f	-0.06914734
31	0xbe0f58f2	-0.13998774
32	0x3dd954a0	0.10611844
33	0x3d3b22b0	0.045687377
34	0x3e865ecf	0.26244208
35	0xbd6b035e	-0.057376258
36	0x3e3b85bc	0.18312734
37	0x3e851f41	0.26000407
38	0x3ca524de	0.020159181
39	0xbe4ab765	-0.19796522

hidden_layer.weight f4 [10, 40]
0	0xbf07df57	-0.53075165
1	0x3e242c01	0.16032411
2	0x3e3a9418	0.18220556
3	0x3e86d6f5	0.26335874
4	0xbece24e3	-0.40262517
5	0x3d430899	0.04761562
6	0x3c80d1a3	0.015724963
7	0xbea3e175	-0.32007948
8	0xbe3ea8bc	-0.18619055
9	0xbe9c5ccc	-0.30539548
10	0xbf7c94c6	-0.9866451
11	0x3ddc8f44	0.10769513
12	0x3de0f9ee	0.1098517
13	0xbf0f211c	-0.55909896
14	0x3e030e00	0.1279831
15	0x3ecaeccf	0.39633796
16	0xbe548b54	-0.20756274
17	0x3e6a4ccd	0.2288086
18	0x3e5e5dd2	0.21715477
19	0xbf16d019	-0.5891128
20	0x3e8c19f9	0.27363566
21	0xbe1b52bb	-0.15168278
22	0xbeb3cffa	-0.3511961
23	0x3d9e3c19	0.077263065
24	0xbe925d97	-0.28587028
25	0x3d490c2c	0.049083874
26	0x3d51747b	0.051136475
27	0xbeb95c91	-0.36203435
28	0xbdb119d6	-0.08647506
29	0xbe935ba5	-0.28780857
30	0xbe1576d2	-0.14596108
31	0x3ea319a0	0.31855488
32	0x3e113716	0.1418117
33	0x3d8c6c84	0.06856635
34	0x3e3d5988	0.18491185
35	0x3e4f4637	0.20241629
36	0xbed0ccc2	-0.40781218
37	0x3e60e7d7	0.2196344
38	0xbedca76c	-0.43096483
39	0xbe1c1911	-0.15243937
40	0x3e792caa	0.24333444
41	0xbba496a0	-0.0050228387
42	0xbe984541	-0.29740337
43	0xbe14fdca	-0.14549938
44	0x3e1b8130	0.15186
45	0xbefd4a9a	-0.4947098
46	0xbd43a028	-0.04776016
47	0xbd23e870	-0.04001659
48	0x3de974d7	0.113992386
49	0x3cf79b5b	0.030225446
50	0x3ef77e80	0.483387
51	0x3e10f0d0	0.14154363
52	0xbdacb783	-0.084334396
53	0x3e689aee	0.22715351
54	0xbf19a7cc	-0.6002166
55	0xbecdc29e	-0.40187544
56	0x3e6eb084	0.23309523
57	0xbef5cbfe	-0.48007196
58	0xbe3a8122	-0.18213323
59	0xbee8a29e	-0.45436567
60	0xbeae1d9c	-0.34006965
61	0xbe7a6f61	-0.2445655
62	0x3ddd0e8b	0.107937895
63	0x3e766971	0.2406366
64	0x3ec859f1	0.3913112
65	0x3eb1f288	0.3475535
66	0xbec96555	-0.39335123
67	0xbe81110a	-0.25208312
68	0x3dd8013e	0.10547112
69	0xbe17b8d5	-0.14816602
70	0x3e2ebc3f	0.17063998
71	0xbc84466b	-0.01614686
72	0x3e885278	0.2662542
73	0x3e0c1fc6	0.13683996
74	0x3e36baff	0.17844771
75	0xbeb33515	-0.35001436
76	0x3f0280cd	0.50977784
77	0x3f27a8d0	0.6549196
78	0x3d77e839	0.0605242
79	0xbebb0518	-0.36527324
80	0x3eb9267c	0.36162174
81	0x3ed4ab75	0.4153706
82	0x3e25cc8f	0.16191314
83	0xbd58458d	-0.052800704
84	0x3e98aa89	0.29817608
85	0x3e0c1ba5	0.1368242
86	0xbe07d7a5	-0.13265856
87	0x3d66888a	0.056282558
88	0xbc34540f	-0.011006369
89	0x3daa878e	0.08326636
90	0xbef07dcd	-0.46970978
91	0x3d8ea8cb	0.069657885
92	0x3ead16b3	0.3380638
93	0x3ecb9f26	0.39769858
94	0x3de98e3a	0.11404081
95	0x3edff752	0.43743378
96	0xbf24e325	-0.64409095
97	0xbe880c2d	-0.2657179
98	0xbd170d6c	-0.036878034
99	0xbecb04f8	-0.39652228
100	0xbe3c9fb1	-0.18420292
101	0x3ed23101	0.41053012
102	0xbde9e263	-0.11420133
103	0xbf29d2f5	-0.6633752
104	0x3db87d03	0.09008219
105	0x3dfe22f1	0.12409008
106	0xbca38d3c	-0.019964807
107	0xbd9f1ee3	-0.07769563
108	0xbdf65d27	-0.12029486
109	0xbed12ee4	-0.40856087
110	0x3e909aae	0.2824301
111	0x3e82fb42	0.2558232
112	0xbe1d0b9e	-0.15336463
113	0x3c329b87	0.010901338
114	0x3e83818e	0.2568478
115	0xbe9ab504	-0.3021623
116	0xbdbfe3cf	-0.09369623
117	0xbe5abc41	-0.21360876
118	0xbec388cc	-0.38190305
119	0xbe10495d	-0.14090486
120	0x3e3c40e0	0.18384123
121	0x3eb4b7e2	0.3529654
122	0x3e618814	0.22024566
123	0xbee6276a	-0.44951946
124	0xbf0faa01	-0.5611878
125	0x3c0f8590	0.008759871
126	0x3e01bb56	0.12669119
127	0x3e1e56f0	0.15462852
128	0x3e037d96	0.12840876
129	0x3dd64c54	0.10463777
130	0x3e7d75e6	0.24752006
131	0xbe1e4104	-0.15454489
132	0x3e2ceae5	0.1688648
133	0xbe865f08	-0.26244378
134	0xbe0c2822	-0.13687184
135	0x3e4b642e	0.19862434
136	0xbf066ef7	-0.5251307
137	0xbe5b2d25	-0.2140394
138	0x3e5d0dd9	0.21587314
139	0xbe289fef	-0.1646726
140	0xbe0c75fb	-0.13716881
141	0xbe751713	-0.23934583
142	0xbdd6d086	-0.104889914
143	0x3e7c7de0	0.24657393
144	0x3e44b0a6	0.19208011
145	0x3e274c5f	0.16337727
146	0xbee3bd4c	-0.4448036
147	0x3eaeee96	0.34166402
148	0xbc928de1	-0.017889919
149	0xbcc38762	-0.023868266
150	0x3ddecab8	0.10878509
151	0xbe13384d	-0.14376946
152	0x3eb663e0	0.35623074
153	0xbece44dd	-0.40286914
154	0xbe68ee88	-0.22747242
155	0xbe5362fb	-0.20643227
156	0xbe84f9d9	-0.2597187
157	0xbee8fcd6	-0.455054
158	0x3e9399be	0.28828233
159	0x3e2c3e57	0.16820656
160	0xbd032889	-0.03202108
161	0x3cc50a2a	0.024052698
162	0xbe70103c	-0.23443693
163	0x3e2abb5a	0.16673031
164	0xbda89145	-0.08230833
165	0xbe846c65	-0.25863948
166	0xbdaca35d	-0.084295966
167	0xbe29f491	-0.16597201
168	0xbe39fd07	-0.18162929
169	0x3ca69060	0.020332515
170	0xbe27f1cf	-0.16400836
171	0xbed0e409	-0.40798977
172	0xbede8034	-0.43457186
173	0xbedf8525	-0.4365627
174	0x3d04f553	0.032460522
175	0xbf60aeaf	-0.87766546
176	0x3eaa05fb	0.33207688
177	0x3cd36612	0.025805507
178	0xbf071edc	-0.5278146
179	0x3ea1e4b2	0.31619793
180	0x3daf57cd	0.085616685
181	0x3e552cb7	0.20817839
182	0x3e1d2af1	0.15348412
183	0xbe60cd5f	-0.21953343
184	0x3e601ec3	0.21886735
185	0xbdb5cdcc	-0.08877143
186	0xbd484b5b	-0.04889999
187	0x3e383c4e	0.17991754
188	0x3c41d0b8	0.011829548
189	0x3e30c0e0	0.17261076
190	0xbf230f97	-0.63695663
191	0x3d2d7283	0.042345535
192	0xbf2d560e	-0.67709434
193	0x3e0a29f1	0.13492562
194	0xbc382edd	-0.011241642
195	0xbd6c4ec2	-0.057692297
196	0x3f16f577	0.589683
197	0x3d6f99f4	0.05849643
198	0x3dde6e2f	0.108608596
199	0x3e30e608	0.1727525
200	0xbd816814	-0.063186795
201	0xbef3f29b	-0.4764603
202	0x3e732ee4	0.23748356
203	0x3eb8030e	0.3593983
204	0x3a44f450	0.0007513212
205	0x3e045492	0.12922886
206	0xbd951bc5	-0.07280687
207	0x3ce7b332	0.02828369
208	0x3c79e4f7	0.015252343
209	0x3d1aa01d	0.037750352
210	0x3f14a305	0.5806125
211	0x3ddfebb0	0.10933626
212	0xbf21a412	-0.63140976
213	0x3ee19c5d	0.44064608
214	0x3e254d48	0.16142762
215	0x3e1f7a31	0.15573956
216	0xbe916746	-0.28399104
217	0xbe96e8b3	-0.2947441
218	0xbd9e38c6	-0.077256724
219	0x3e9ea1fa	0.30982953
220	0x3e05c7b5	0.13064463
221	0xbec3ff05	-0.38280502
222	0x3c1fd19f	0.009754567
223	0x3e9b3b64	0.3031875
224	0xbf901c54	-1.1258645
225	0xbf633cbf	-0.88764566
226	0x3e008226	0.12549648
227	0x3cec67eb	0.028858146
228	0xbc122da0	-0.008922011
229	0x3e6571c0	0.22406673
230	0x3e5b1380	0.21394157
231	0xbea2f7be	-0.31829637
232	0x3d22eb91	0.039775435
233	0xbf1623b5	-0.58648235
234	0x3e994188	0.2993281
235	0x3e1884fd	0.14894481
236	0xbe063450	-0.13105893
237	0x3d85f5f0	0.065410495
238	0x3de23112	0.11044516
239	0xbe66ba88	-0.22532094
240	0x3e0222b7	0.12708555
241	0xbf1e7496	-0.61896646
242	0x3da2a2d5	0.07941214
243	0xbf0a139f	-0.5393619
244	0x3eba3c41	0.36374095
245	0xbf16a169	-0.5884004
246	0xbd9d7f91	-0.07690347
247	0x3e5f0eac	0.2178294
248	0xbe4fee03	-0.20305638
249	0xbeefedb7	-0.4686105
250	0xbf2e2a36	-0.6803316
251	0x3e2d1b8f	0.16905044
252	0xbeab8dec	-0.33506715
253	0xbdecd1f4	-0.11563483
254	0x3e143a99	0.14475478
255	0xbe70a80c	-0.23501605

hidden_layer.bias f4 [10]
0	0xbe55f9dd	-0.20896097
1	0x3e069dc9	0.13146128
2	0xbd8f9d27	-0.07012396
3	0xbd07654e	-0.033055596
4	0x3d7e8981	0.062142853
5	0x3e826321	0.25466254
6	0xbd318296	-0.043337427
7	0x3c03710b	0.008022557
8	0xbe57638a	-0.21034065
9	0x3d4b5edc	0.04965101
